results/dnn_surrogate.tflite (tflite, 17680 bytes, 8 tensors)

arith.constant f4 [128]
000000 f3 40 c3 3e 66 7d e3 3e f4 62 00 3f e9 b2 cd 3e
       0.3813549 0.4443161 0.5015099 0.4017556
000010 dd fc cc 3e e4 1d 00 3f b9 09 b7 3e 57 ff ec 3e
       0.4003667 0.5004561 0.35749605 0.4628856
000020 34 c1 db 3e f1 65 8c 3e e6 14 e0 3e c4 fe e5 3e
       0.4292084 0.27421525 0.43765944 0.44920933
000030 71 1b ab 3e 15 38 d8 3e 69 ed d4 3e 18 f3 04 3f
       0.33419374 0.42230287 0.4158738 0.5193343
000040 76 7c f8 3e 70 1f e2 3e d6 0c d8 3e ed c3 df 3e
       0.48532456 0.4416461 0.42197293 0.43704167
000050 b2 43 9d 3e a7 6a f3 3e 08 dd b1 3e 91 10 c7 3e
       0.3071571 0.47542307 0.34738946 0.38879827
000060 37 4e 03 3f 68 6b d8 3e 05 96 f7 3e da dc b2 3e
       0.5129122 0.42269444 0.48356643 0.3493412
000070 cf c8 02 3f 48 fa d8 3e 58 da 03 3f 7d 68 eb 3e
       0.5108766 0.4237845 0.5150504 0.45978156
000080 89 10 09 3f 29 a4 d9 3e 3c d9 e8 3e b9 e6 a8 3e
       0.53540856 0.42508057 0.45478237 0.32988527
000090 3d fc ce 3e 1a 3a dc 3e c6 ad cc 3e f8 c6 e1 3e
       0.40426818 0.43013078 0.3997633 0.44097114
0000a0 b7 4d ab 3e c2 ff fe 3e 64 8c c7 3e 62 4c e4 3e
       0.3345773 0.49804503 0.38974297 0.44589525
0000b0 e8 3d aa 3e e0 25 bf 3e a6 77 e0 3e 02 fd b8 3e
       0.33250356 0.37333584 0.43841285 0.3613053
0000c0 bb e5 de 3e de d2 e1 3e 46 cb f3 3e f1 0a b9 3e
       0.43534645 0.4410619 0.47616023 0.3614116
0000d0 c4 0d eb 3e 16 4d 00 3f bc 42 f1 3e c7 09 d7 3e
       0.4590894 0.50117624 0.47121227 0.41999647
0000e0 52 8f fe 3e 32 5f df 3e e7 16 b9 3e da 10 ff 3e
       0.4971872 0.43627316 0.36150286 0.49817544
0000f0 2b 9f 71 3e a9 be d6 3e 65 66 cc 3e 68 80 09 3f
       0.23595874 0.41942337 0.3992187 0.5371156
000100 f7 e6 d2 3e df 1a df 3e e1 85 e0 3e f8 3d 02 3f
       0.41191837 0.4357519 0.43852141 0.50875807
000110 c5 72 e2 3e b9 5c fd 3e b3 6b a6 3e 53 24 d0 3e
       0.44228187 0.49484804 0.32504043 0.40652713
000120 5d 46 dd 3e cc b5 c1 3e bb 31 d7 3e 0a fa eb 3e
       0.43217745 0.37834013 0.4203013 0.46089202
000130 91 4d d0 3e e3 9e bd 3e d7 48 ed 3e f5 49 e7 3e
       0.40684178 0.37035283 0.46344635 0.45173612
000140 b6 e7 c7 3e 14 4e ba 3e 70 08 bf 3e 1a 59 be 3e
       0.3904397 0.36387694 0.37311125 0.37177354
000150 01 4f ca 3e 23 bf e5 3e 1f 8e f8 3e 1e f7 ad 3e
       0.395134 0.44872388 0.4854593 0.33977598
000160 e4 d4 ae 3e ae 79 d3 3e 74 26 eb 3e 47 f1 ea 3e
       0.34146798 0.41303772 0.45927775 0.45887205
000170 25 0a e2 3e dc 8f f8 3e fb 53 e0 3e 42 23 c3 3e
       0.44148365 0.48547256 0.43814072 0.38112837
000180 8c 8a c6 3e 26 14 e8 3e d2 d0 97 3e 44 9d da 3e
       0.38777578 0.45327872 0.29651505 0.4269811
000190 fa a3 bb 3e 4b e2 ec 3e f5 23 ec 3e 80 72 c9 3e
       0.36648542 0.46266398 0.46121183 0.3934517
0001a0 d0 52 c5 3e e5 2b ba 3e 47 2f c1 3e 0f 05 ce 3e
       0.38539743 0.36361614 0.37731382 0.40238234
0001b0 ec 17 ea 3e 73 c5 03 3f b5 0d f5 3e 5a 61 07 3f
       0.45721376 0.5147316 0.4786202 0.5288292
0001c0 55 86 e1 3e 1c 92 f5 3e e9 9a c0 3e df 83 e5 3e
       0.440478 0.47963035 0.37618187 0.44827172
0001d0 b7 da e8 3e 8d 10 d8 3e df 47 dd 3e b5 4c cf 3e
       0.45479366 0.42200127 0.43218896 0.4048821
0001e0 59 66 a4 3e f1 9e a2 3e 42 66 02 3f 25 8e f9 3e
       0.32109335 0.31761888 0.50937283 0.4874126
0001f0 81 bd c6 3e ea de f2 3e 87 07 fa 3e c0 79 e2 3e
       0.38816455 0.47435695 0.48833868 0.44233513

arith.constant1 f4 [32]
000000 7e 64 3c 3e 74 ff 3a 3e bd dc be bc 3b cc 72 3e
       0.1839771 0.1826151 -0.023298616 0.2371072
000010 ef d2 42 3e 0d 5d af bc 61 21 31 3e b7 d0 25 3e
       0.19025777 -0.021406675 0.1729789 0.161929
000020 d6 69 0c be 66 fe 7b 3e b3 3a 87 bc 8c aa 49 3e
       -0.13712248 0.24608764 -0.016507482 0.19693965
000030 13 1d db bc 69 2d b3 bc 6a cc 90 bc a2 39 07 bd
       -0.026747262 -0.02187224 -0.017675597 -0.033013947
000040 78 be c5 bc 76 37 2f 3e b5 a9 81 3e 3a d9 d0 bc
       -0.024138674 0.17111 0.2532479 -0.025494207
000050 8b dd 4c 3e b1 90 84 3e 44 3a 38 3e ec 3e d7 bc
       0.20006387 0.2589164 0.17990977 -0.02627512
000060 8d 64 4c 3e 0e bd 41 3e f6 35 2c 3e af f0 80 bc
       0.19960232 0.18919775 0.1681746 -0.015739767
000070 5a 1f d7 bc 73 ca 8e bc 92 e8 52 bc 4e 6e 86 bc
       -0.026260067 -0.01743052 -0.012872832 -0.01641002

arith.constant2 f4 [64]
000000 1c 0c 84 3e 6a 95 47 be 58 c6 6f 3e 49 dd 81 3e
       0.2579049 -0.1949059 0.23415506 0.2536414
000010 2e 20 8e 3e ab d7 a9 bb 69 1b 74 3e 10 48 6e 3e
       0.27758926 -0.0051831803 0.23838581 0.23269677
000020 cc 72 8e 3e 30 a2 73 3e 3e 3c 6d 3e 49 8c 91 3e
       0.27821958 0.23792338 0.23167512 0.28427342
000030 ff 2b 7c 3e 45 cc b0 bd 9c e2 88 3e a0 a3 73 3e
       0.24626158 -0.08632711 0.2673539 0.23792887
000040 82 e8 87 3e 6a 6f 78 3e eb 3d 80 3e 06 f8 7c 3e
       0.26544577 0.24261251 0.2504724 0.24703988
000050 eb 72 8d 3e 7b 11 86 bc ac f7 7c 3e ca 8c ac be
       0.27626738 -0.016365757 0.24703854 -0.33701164
000060 b8 72 96 bc d7 5f 7b 3e a1 cf 0d bd a8 a0 92 3e
       -0.018365249 0.24548279 -0.03462184 0.28638196
000070 fa 01 94 3e fa e5 82 3e 4f aa 82 3e 67 c1 8f 3e
       0.28907758 0.25566083 0.2552056 0.28077242
000080 cb a4 84 3e a3 85 0f bc 3b cb 87 3e ce ba 7c 3e
       0.25906977 -0.008759889 0.2652224 0.24680635
000090 0a e2 00 bf 39 fa 75 3e 3e 7a 81 3e 19 ee 81 3e
       -0.5034491 0.24021234 0.25288576 0.25376967
0000a0 f8 bc 6e 3e a3 fe 16 be df 55 89 3e 49 52 11 bd
       0.23314273 -0.14745574 0.26823327 -0.035478864
0000b0 82 fe 84 3e 45 f6 80 3e 6d 9c af bc 12 ae 72 3e
       0.25975424 0.2518789 -0.021436894 0.23699215
0000c0 74 3d 72 3e e2 af 86 3e 0d b8 70 3e ce 68 81 3e
       0.23656255 0.26306063 0.2350771 0.25275272
0000d0 ad 16 7e 3e c6 71 ad 3e 7d be 83 3e ba c5 6b 3e
       0.24813338 0.33875865 0.2573127 0.23024645
0000e0 da 35 91 3e a1 bf 80 3e 1d fe 82 3e 1d 96 76 3e
       0.28361398 0.251462 0.25584498 0.24080701
0000f0 6b c9 71 3e d1 fe 85 3e e7 1a 68 3e 4a c9 8c 3e
       0.23611991 0.26170972 0.22666512 0.2749732

arith.constant3 f4 [2]
000000 86 02 13 3e 7b 06 a8 3e
       0.14356431 0.32817444

arith.constant4 f4 [2, 32]
000000 be 8c b7 3e 8d 2b a1 3e 36 49 4a be 59 c7 4a 3e
       0.35849565 0.3147854 -0.1975449 0.19802608
000010 8d 4c bb 3e 76 0a 7a 3c c5 c3 d2 3e 65 a4 13 3f
       0.3658184 0.015261283 0.41164985 0.5767272
000020 2e d3 c8 be 9e e8 43 3e 6a b4 c9 be cb 8d 5a 3e
       -0.39223617 0.19131705 -0.39395458 0.21343152
000030 15 e3 ff bc 4f ae d3 bd f7 a8 75 be 4d 17 b3 bd
       -0.03123621 -0.10335981 -0.23990236 -0.08744679
000040 58 d1 30 be 1f eb e7 3e 9e a2 37 3e a1 a9 ac be
       -0.17267358 0.4529657 0.17933127 -0.33723167
000050 4f ff 84 3e 2f 33 4f 3e cc af f1 3e 9e c6 a5 be
       0.25976035 0.20234369 0.47204435 -0.32378095
000060 e9 f9 97 3e 92 14 e6 3e 8c 93 c9 3e a8 7a a4 be
       0.29682854 0.4493757 0.39370382 -0.3212483
000070 65 5d b6 be 54 3a 72 be f2 e7 c3 bd 5d d9 c4 be
       -0.3561813 -0.23655063 -0.095657244 -0.38447085
000080 2f 1a 88 3e 00 4b 1a 3b ca 13 90 be 52 ce f5 3b
       0.26582476 0.0023543239 -0.28140098 0.007501402
000090 1d c4 ab 3d 2f e2 ee 3d 67 82 49 be 06 a4 cd 3c
       0.08387015 0.11664235 -0.19678651 0.025102627
0000a0 ac 07 e3 3e 76 dd 48 3e d9 26 93 3d 13 82 c3 be
       0.4434179 0.1961573 0.07185144 -0.38185176
0000b0 76 19 8f be 6e 8e 3d 3e ae f5 7c 3e 2e a3 90 3e
       -0.27949113 0.18511364 0.24703094 0.28249496
0000c0 b4 8c 7e 3e 88 0f ab bd d8 b1 0c 3d f4 3b 74 bd
       0.24858361 -0.08352572 0.034349293 -0.05962749
0000d0 b2 98 9a be 79 a6 b5 3e 71 f1 90 3e 71 ad 10 be
       -0.30194622 0.3547857 0.28309205 -0.14128663
0000e0 93 e2 44 bd 88 0c c8 3d e0 89 a9 be c5 6c 6e 3e
       -0.04806764 0.09768015 -0.33113003 0.2328368
0000f0 7f f3 34 be 22 9f 77 3d bd a5 a5 3d bb 6c a5 3d
       -0.17671011 0.060454495 0.08088253 0.08077379

tfl.pseudo_qconst i1 [32, 64]
000000 f8 88 45 45 43 00 25 59 11 00 57 14 21 ab f7 3a
       -8 -120 69 69 67 0 37 89 17 0 87 20 33 -85 -9 58
000010 4d 31 2d 39 0e fc ea 9e 31 02 07 f5 24 07 3c 13
       77 49 45 57 14 -4 -22 -98 49 2 7 -11 36 7 60 19
000020 06 00 57 57 d2 28 fd 4d 11 81 f5 31 46 53 d2 45
       6 0 87 87 -46 40 -3 77 17 -127 -11 49 70 83 -46 69
000030 f7 2b 36 30 2a 00 f6 15 29 53 27 03 57 39 04 04
       -9 43 54 48 42 0 -10 21 41 83 39 3 87 57 4 4
000040 07 81 23 2a 06 fd fe 2e 22 12 18 2e fb 8e 12 46
       7 -127 35 42 6 -3 -2 46 34 18 24 46 -5 -114 18 70
000050 0d 2b 03 38 22 fb 24 cf 02 1f ea 47 17 0a 0d 0d
       13 43 3 56 34 -5 36 -49 2 31 -22 71 23 10 13 13
000060 3e 33 2a 28 98 15 f3 13 13 85 1a 00 2e 41 eb 3f
       62 51 42 40 -104 21 -13 19 19 -123 26 0 46 65 -21 63
000070 3c 32 2c fa 08 1a 2e 1e 31 42 25 36 22 34 2e 39
       60 50 44 -6 8 26 46 30 49 66 37 54 34 52 46 57
000080 c6 bb 17 ab cd d5 18 61 9b 56 b9 34 83 6d 9f f3
       -58 -69 23 -85 -51 -43 24 97 -101 86 -71 52 -125 109 -97 -13
000090 45 f1 de ac 24 e6 3f 3a b6 11 39 04 f9 a8 4f 02
       69 -15 -34 -84 36 -26 63 58 -74 17 57 4 -7 -88 79 2
0000a0 81 30 54 45 49 c7 19 41 6c 43 f1 36 ec 31 2f 63
       -127 48 84 69 73 -57 25 65 108 67 -15 54 -20 49 47 99
0000b0 3b ef a4 82 d9 a3 e0 e2 19 cf 06 ae 62 d4 44 e6
       59 -17 -92 -126 -39 -93 -32 -30 25 -49 6 -82 98 -44 68 -26
0000c0 20 81 fd 26 0d 33 1e 2a 1d 17 2f 22 1e 85 26 27
       32 -127 -3 38 13 51 30 42 29 23 47 34 30 -123 38 39
0000d0 25 20 13 06 03 f1 27 b9 18 23 fe 12 10 20 27 02
       37 32 19 6 3 -15 39 -71 24 35 -2 18 16 32 39 2
0000e0 23 18 f9 1b ba 07 0d 18 0f 86 1a 11 fc fc 05 17
       35 24 -7 27 -70 7 13 24 15 -122 26 17 -4 -4 5 23
0000f0 12 04 13 06 2c 36 13 ff 23 1e 01 0e f8 18 2c 01
       18 4 19 6 44 54 19 -1 35 30 1 14 -8 24 44 1

tfl.pseudo_qconst1 i1 [64, 128]
000000 32 4d 4d 3e 34 74 39 f3 20 36 61 0a 0d 0f 18 65
       50 77 77 62 52 116 57 -13 32 54 97 10 13 15 24 101
000010 03 70 35 27 44 63 20 55 fe 29 0e 03 57 22 0e 40
       3 112 53 39 68 99 32 85 -2 41 14 3 87 34 14 64
000020 40 f7 78 fe 29 33 02 37 04 58 1e ee 40 46 22 14
       64 -9 120 -2 41 51 2 55 4 88 30 -18 64 70 34 20
000030 2a 67 5f 53 71 3f 16 68 5b 24 36 fa 01 0e 64 6f
       42 103 95 83 113 63 22 104 91 36 54 -6 1 14 100 111
000040 1c 16 3c 5c 3e 2f 37 31 fd 6f f7 35 40 1c 70 55
       28 22 60 92 62 47 55 49 -3 111 -9 53 64 28 112 85
000050 13 11 48 f1 12 4b 7f 4c 21 3d 04 0a f8 1c 04 e8
       19 17 72 -15 18 75 127 76 33 61 4 10 -8 28 4 -24
000060 f7 28 2d ee 31 3c 50 5e 69 fb 0a 21 70 53 1f 3d
       -9 40 45 -18 49 60 80 94 105 -5 10 33 112 83 31 61
000070 06 30 58 41 20 36 11 1a 04 f7 72 1d 05 38 67 f4
       6 48 88 65 32 54 17 26 4 -9 114 29 5 56 103 -12
000080 f7 ac bc 06 fd bd fd 09 d5 32 fd d6 27 df 3f 02
       -9 -84 -68 6 -3 -67 -3 9 -43 50 -3 -42 39 -33 63 2
000090 df f6 b7 e8 ee 2a 1f 41 c9 db 18 0b ad ff cd 17
       -33 -10 -73 -24 -18 42 31 65 -55 -37 24 11 -83 -1 -51 23
0000a0 ad 36 f1 38 ea c9 ba 0e 4a e3 d6 d9 1e 42 14 66
       -83 54 -15 56 -22 -55 -70 14 74 -29 -42 -39 30 66 20 102
0000b0 e5 03 07 e0 dc b3 07 18 bb 0f 73 ff f9 e6 b3 d3
       -27 3 7 -32 -36 -77 7 24 -69 15 115 -1 -7 -26 -77 -45
0000c0 04 32 e1 b3 e2 ec f9 e5 21 e5 01 40 0b 03 08 8d
       4 50 -31 -77 -30 -20 -7 -27 33 -27 1 64 11 3 8 -115
0000d0 04 44 1d e5 39 32 ec 01 f4 f7 1a d8 03 27 c2 3a
       4 68 29 -27 57 50 -20 1 -12 -9 26 -40 3 39 -62 58
0000e0 38 e9 54 25 02 c3 14 52 df 59 31 e6 e5 f0 ec 81
       56 -23 84 37 2 -61 20 82 -33 89 49 -26 -27 -16 -20 -127
0000f0 ef f6 ec 1c fd eb 3f 32 17 59 f1 14 04 bf ac 2b
       -17 -10 -20 28 -3 -21 63 50 23 89 -15 20 4 -65 -84 43

sequential_1/dense_1/MatMul i1 [128, 10]
000000 b5 56 08 f2 e1 f1 30 3e 7f 30 7f e6 66 e6 2d e5
       -75 86 8 -14 -31 -15 48 62 127 48 127 -26 102 -26 45 -27
000010 d4 ee be b1 7f 3c a3 d1 6c 8d 32 6b 49 f6 be 7f
       -44 -18 -66 -79 127 60 -93 -47 108 -115 50 107 73 -10 -66 127
000020 e0 af 65 6e e2 26 74 5d 2c 7f 73 e5 b3 36 2a 63
       -32 -81 101 110 -30 38 116 93 44 127 115 -27 -77 54 42 99
000030 30 67 7f 57 20 ab e5 09 0c 1b 26 9d 7f fa 20 4e
       48 103 127 87 32 -85 -27 9 12 27 38 -99 127 -6 32 78
000040 58 f5 41 af b6 0a 56 d6 3d 9c b8 7f 08 3c 47 4d
       88 -11 65 -81 -74 10 86 -42 61 -100 -72 127 8 60 71 77
000050 d2 6c ef 4f 67 bf 32 c7 7f 18 24 24 7f 8b 69 fd
       -46 108 -17 79 103 -65 50 -57 127 24 36 36 127 -117 105 -3
000060 c0 2d 78 27 2a 81 fd 1a 34 b1 2e 41 1c 35 6a ac
       -64 45 120 39 42 -127 -3 26 52 -79 46 65 28 53 106 -84
000070 7f dd 38 14 cf 0d 62 58 66 4c ac 50 44 81 f3 71
       127 -35 56 20 -49 13 98 88 102 76 -84 80 68 -127 -13 113
000080 9d 49 00 8d ff c6 7f 9d 58 e8 59 e3 a2 69 c4 b4
       -99 73 0 -115 -1 -58 127 -99 88 -24 89 -29 -94 105 -60 -76
000090 90 be d9 7f f1 b6 17 46 f1 47 9d 51 e3 2d 7f 91
       -112 -66 -39 127 -15 -74 23 70 -15 71 -99 81 -29 45 127 -111
0000a0 30 7f 44 f0 ba b8 37 61 38 c9 1c 7f c9 3a ef 18
       48 127 68 -16 -70 -72 55 97 56 -55 28 127 -55 58 -17 24
0000b0 39 27 3e 41 5d 81 09 57 6d 6a de b2 57 9f 73 75
       57 39 62 65 93 -127 9 87 109 106 -34 -78 87 -97 115 117
0000c0 7f d9 19 8a f6 26 62 22 97 81 9f 0b 1f 16 ff f7
       127 -39 25 -118 -10 38 98 34 -105 -127 -97 11 31 22 -1 -9
0000d0 20 fb 7f 76 31 f0 89 ab a4 9e 3f 29 5e 85 51 5f
       32 -5 127 118 49 -16 -119 -85 -92 -98 63 41 94 -123 81 95
0000e0 9e 53 81 1d 3f 5b 35 7f f1 3d 9c 09 1f 22 c2 f5
       -98 83 -127 29 63 91 53 127 -15 61 -100 9 31 34 -62 -11
0000f0 03 2a 3f ba c1 16 24 d8 7f 2d 7f 1f 65 69 fb d7
       3 42 63 -70 -63 22 36 -40 127 45 127 31 101 105 -5 -41
