results/dnn_surrogate.tflite (tflite, 49476 bytes, 8 tensors)

arith.constant f4 [32]
0	0x3e3c647e	0.1839771
1	0x3e3aff74	0.1826151
2	0xbcbedcbd	-0.023298616
3	0x3e72cc3b	0.2371072
4	0x3e42d2ef	0.19025777
5	0xbcaf5d0d	-0.021406675
6	0x3e312161	0.1729789
7	0x3e25d0b7	0.161929
8	0xbe0c69d6	-0.13712248
9	0x3e7bfe66	0.24608764
10	0xbc873ab3	-0.016507482
11	0x3e49aa8c	0.19693965
12	0xbcdb1d13	-0.026747262
13	0xbcb32d69	-0.02187224
14	0xbc90cc6a	-0.017675597
15	0xbd0739a2	-0.033013947
16	0xbcc5be78	-0.024138674
17	0x3e2f3776	0.17111
18	0x3e81a9b5	0.2532479
19	0xbcd0d93a	-0.025494207
20	0x3e4cdd8b	0.20006387
21	0x3e8490b1	0.2589164
22	0x3e383a44	0.17990977
23	0xbcd73eec	-0.02627512
24	0x3e4c648d	0.19960232
25	0x3e41bd0e	0.18919775
26	0x3e2c35f6	0.1681746
27	0xbc80f0af	-0.015739767
28	0xbcd71f5a	-0.026260067
29	0xbc8eca73	-0.01743052
30	0xbc52e892	-0.012872832
31	0xbc866e4e	-0.01641002

arith.constant1 f4 [64]
0	0x3e840c1c	0.2579049
1	0xbe47956a	-0.1949059
2	0x3e6fc658	0.23415506
3	0x3e81dd49	0.2536414
4	0x3e8e202e	0.27758926
5	0xbba9d7ab	-0.0051831803
6	0x3e741b69	0.23838581
7	0x3e6e4810	0.23269677
8	0x3e8e72cc	0.27821958
9	0x3e73a230	0.23792338
10	0x3e6d3c3e	0.23167512
11	0x3e918c49	0.28427342
12	0x3e7c2bff	0.24626158
13	0xbdb0cc45	-0.08632711
14	0x3e88e29c	0.2673539
15	0x3e73a3a0	0.23792887
16	0x3e87e882	0.26544577
17	0x3e786f6a	0.24261251
18	0x3e803deb	0.2504724
19	0x3e7cf806	0.24703988
20	0x3e8d72eb	0.27626738
21	0xbc86117b	-0.016365757
22	0x3e7cf7ac	0.24703854
23	0xbeac8cca	-0.33701164
24	0xbc9672b8	-0.018365249
25	0x3e7b5fd7	0.24548279
26	0xbd0dcfa1	-0.03462184
27	0x3e92a0a8	0.28638196
28	0x3e9401fa	0.28907758
29	0x3e82e5fa	0.25566083
30	0x3e82aa4f	0.2552056
31	0x3e8fc167	0.28077242
32	0x3e84a4cb	0.25906977
33	0xbc0f85a3	-0.008759889
34	0x3e87cb3b	0.2652224
35	0x3e7cbace	0.24680635
36	0xbf00e20a	-0.5034491
37	0x3e75fa39	0.24021234
38	0x3e817a3e	0.25288576
39	0x3e81ee19	0.25376967
40	0x3e6ebcf8	0.23314273
41	0xbe16fea3	-0.14745574
42	0x3e8955df	0.26823327
43	0xbd115249	-0.035478864
44	0x3e84fe82	0.25975424
45	0x3e80f645	0.2518789
46	0xbcaf9c6d	-0.021436894
47	0x3e72ae12	0.23699215
48	0x3e723d74	0.23656255
49	0x3e86afe2	0.26306063
50	0x3e70b80d	0.2350771
51	0x3e8168ce	0.25275272
52	0x3e7e16ad	0.24813338
53	0x3ead71c6	0.33875865
54	0x3e83be7d	0.2573127
55	0x3e6bc5ba	0.23024645
56	0x3e9135da	0.28361398
57	0x3e80bfa1	0.251462
58	0x3e82fe1d	0.25584498
59	0x3e76961d	0.24080701
60	0x3e71c96b	0.23611991
61	0x3e85fed1	0.26170972
62	0x3e681ae7	0.22666512
63	0x3e8cc94a	0.2749732

arith.constant2 f4 [2]
0	0x3e130286	0.14356431
1	0x3ea8067b	0.32817444

arith.constant3 f4 [2, 32]
0	0x3eb78cbe	0.35849565
1	0x3ea12b8d	0.3147854
2	0xbe4a4936	-0.1975449
3	0x3e4ac759	0.19802608
4	0x3ebb4c8d	0.3658184
5	0x3c7a0a76	0.015261283
6	0x3ed2c3c5	0.41164985
7	0x3f13a465	0.5767272
8	0xbec8d32e	-0.39223617
9	0x3e43e89e	0.19131705
10	0xbec9b46a	-0.39395458
11	0x3e5a8dcb	0.21343152
12	0xbcffe315	-0.03123621
13	0xbdd3ae4f	-0.10335981
14	0xbe75a8f7	-0.23990236
15	0xbdb3174d	-0.08744679
16	0xbe30d158	-0.17267358
17	0x3ee7eb1f	0.4529657
18	0x3e37a29e	0.17933127
19	0xbeaca9a1	-0.33723167
20	0x3e84ff4f	0.25976035
21	0x3e4f332f	0.20234369
22	0x3ef1afcc	0.47204435
23	0xbea5c69e	-0.32378095
24	0x3e97f9e9	0.29682854
25	0x3ee61492	0.4493757
26	0x3ec9938c	0.39370382
27	0xbea47aa8	-0.3212483
28	0xbeb65d65	-0.3561813
29	0xbe723a54	-0.23655063
30	0xbdc3e7f2	-0.095657244
31	0xbec4d95d	-0.38447085
32	0x3e881a2f	0.26582476
33	0x3b1a4b00	0.0023543239
34	0xbe9013ca	-0.28140098
35	0x3bf5ce52	0.007501402
36	0x3dabc41d	0.08387015
37	0x3deee22f	0.11664235
38	0xbe498267	-0.19678651
39	0x3ccda406	0.025102627
40	0x3ee307ac	0.4434179
41	0x3e48dd76	0.1961573
42	0x3d9326d9	0.07185144
43	0xbec38213	-0.38185176
44	0xbe8f1976	-0.27949113
45	0x3e3d8e6e	0.18511364
46	0x3e7cf5ae	0.24703094
47	0x3e90a32e	0.28249496
48	0x3e7e8cb4	0.24858361
49	0xbdab0f88	-0.08352572
50	0x3d0cb1d8	0.034349293
51	0xbd743bf4	-0.05962749
52	0xbe9a98b2	-0.30194622
53	0x3eb5a679	0.3547857
54	0x3e90f171	0.28309205
55	0xbe10ad71	-0.14128663
56	0xbd44e293	-0.04806764
57	0x3dc80c88	0.09768015
58	0xbea989e0	-0.33113003
59	0x3e6e6cc5	0.2328368
60	0xbe34f37f	-0.17671011
61	0x3d779f22	0.060454495
62	0x3da5a5bd	0.08088253
63	0x3da56cbb	0.08077379

arith.constant4 f4 [32, 64]
0	0xbd1659df	-0.0367068
1	0xbf0f09ce	-0.55874336
2	0x3ea36ac7	0.31917402
3	0x3ea4474e	0.3208565
4	0x3e9f3e95	0.31102434
5	0x3b139254	0.0022517638
6	0x3e2e52c4	0.1702376
7	0x3ed287cb	0.41119227
8	0x3da1c6ff	0.078992836
9	0x3a260035	0.00063324283
10	0x3ecf6cc3	0.40512666
11	0x3dc06a79	0.09395308
12	0x3e1e770a	0.15475097
13	0xbec8f79d	-0.39251414
14	0xbd236905	-0.039895076
15	0x3e88e042	0.26733595
16	0x3eb819ec	0.35957277
17	0x3e6a9365	0.22907789
18	0x3e576209	0.21033491
19	0x3e8800c5	0.26563087
20	0x3d89ab81	0.06722165
21	0xbcaae542	-0.020861272
22	0xbdcf0f59	-0.10110349
23	0xbee92b92	-0.45541054
24	0x3e6918c8	0.2276336
25	0x3c381b66	0.011237001
26	0x3d0adab5	0.03389998
27	0xbd522077	-0.051300492
28	0x3e2ba912	0.16763714
29	0x3d0db518	0.034596533
30	0x3e8e6541	0.27811626
31	0x3db8f111	0.09030355
32	0x3ce0c2d1	0.027436646
33	0x3a5c7046	0.0008409064
34	0x3ecdebc0	0.40218925
35	0x3ecf31bf	0.4046764
36	0xbe5ccf39	-0.21563424
37	0x3e3cbd34	0.1843155
38	0xbc72d97c	-0.01482236
39	0x3eb77607	0.35832235
40	0x3da34f63	0.07974126
41	0xbf16ed9f	-0.5895633
42	0xbd4c026b	-0.049806993
43	0x3e66ded7	0.22545944
44	0x3ea66d24	0.32505143
45	0x3ec47f36	0.38378304
46	0xbe5c3329	-0.21503891
47	0x3ea42efe	0.32067102
48	0xbd296307	-0.041354205
49	0x3e4e2f14	0.20135146
50	0x3e808f9f	0.25109574
51	0x3e624911	0.22098185
52	0x3e47ad30	0.1949966
53	0xba2e6d3d	-0.0006653851
54	0xbd447e40	-0.047971964
55	0x3dca75e6	0.098857686
56	0x3e44eac1	0.19230177
57	0x3ec60320	0.3867426
58	0x3e3a5c98	0.18199384
59	0x3c7a9ffc	0.015296932
60	0x3ecf2062	0.40454394
61	0x3e86f49e	0.26358503
62	0x3c8fdac7	0.017560376
63	0x3c967b1c	0.01836925
64	0x3d248815	0.04016884
65	0xbf3e5871	-0.743537
66	0x3e53c1ad	0.2067935
67	0x3e7b5e30	0.24547648
68	0x3d09b5f9	0.03362081
69	0xbc799e93	-0.015235561
70	0xbc387354	-0.011257965
71	0x3e8b5109	0.27210262
72	0x3e4b59f2	0.1985853
73	0x3dd8550b	0.10563096
74	0x3e10eff2	0.14154032
75	0x3e896dba	0.26841527
76	0xbce8f967	-0.028439237
77	0xbf2ad746	-0.6673473
78	0x3dd9ef6a	0.10641368
79	0x3ed1dc49	0.40988377
80	0x3d9f2604	0.07770923
81	0x3e80d6f0	0.25163984
82	0x3c8f6b8b	0.017507335
83	0x3ea77ec2	0.32713896
84	0x3e490c78	0.19633663
85	0xbcfc4d35	-0.030798534
86	0x3e59a904	0.2125588
87	0xbe942b53	-0.28939304
88	0x3c42063d	0.011842308
89	0x3e3c7826	0.18405208
90	0xbe021226	-0.12702236
91	0x3ed50820	0.4160776
92	0x3e0bbf1b	0.1364712
93	0x3d75e245	0.06003024
94	0x3d9e51e5	0.07730464
95	0x3d994780	0.07484341
96	0x3eb87d66	0.3603317
97	0x3e98aa55	0.29817453
98	0x3e7dc97b	0.2478389
99	0x3e71fc59	0.23631419
100	0xbf1c3847	-0.6102337
101	0x3df714e3	0.12064531
102	0xbd970c81	-0.07375432
103	0x3de64ee8	0.11245519
104	0x3de2a56e	0.110667095
105	0xbf381815	-0.71911746
106	0x3e1ac858	0.15115488
107	0xbb1d3655	-0.0023988683
108	0x3e8a28f1	0.2698436
109	0x3ec1d700	0.37859344
110	0xbdf7e5fa	-0.121044114
111	0x3ebd4562	0.36966997
112	0x3eb4932b	0.3526853
113	0x3e94804f	0.29004142
114	0x3e84824c	0.2588066
115	0xbd11a3d9	-0.035556648
116	0x3d3e741a	0.04649744
117	0x3e19b310	0.15009713
118	0x3e89d96f	0.269237
119	0x3e32412e	0.17407677
120	0x3e940302	0.28908545
121	0x3ec66f24	0.3875667
122	0x3e60b3a9	0.21943535
123	0x3ea1db11	0.31612447
124	0x3e4deedb	0.20110647
125	0x3e9abdbf	0.3022289
126	0x3e896056	0.2683131
127	0x3eaa61ef	0.33277842
128	0xbdf6a841	-0.12043811
129	0xbe12fbc6	-0.14353856
130	0x3d447693	0.047964644
131	0xbe340016	-0.17578158
132	0xbdda6ae1	-0.10664917
133	0xbdb6f071	-0.08932579
134	0x3d4a5efc	0.04940699
135	0x3e4d38bb	0.20041172
136	0xbe57b547	-0.21065246
137	0x3e365043	0.17804055
138	0xbe161726	-0.14657268
139	0x3ddaffd5	0.10693327
140	0xbe852b07	-0.2600939
141	0x3e675601	0.22591402
142	0xbe4ef17a	-0.20209303
143	0xbce4475f	-0.027866064
144	0x3e137b86	0.14402589
145	0xbd0129be	-0.03153395
146	0xbd8fa940	-0.07014704
147	0xbe3233d9	-0.17402591
148	0x3d9b1e90	0.07574189
149	0xbd5f636f	-0.054538187
150	0x3e06e6b3	0.13173942
151	0x3df75505	0.12076763
152	0xbe1cf362	-0.15327218
153	0x3d1323b1	0.03592271
154	0x3df207fb	0.118179284
155	0x3c04300f	0.008068099
156	0xbc60e2b9	-0.01372593
157	0xbe3ad08e	-0.1824362
158	0x3e27e9bf	0.16397761
159	0x3b99d8c8	0.004695032
160	0xbe8702b5	-0.26369253
161	0x3dcb60a8	0.09930545
162	0x3e327634	0.17427903
163	0x3e134331	0.143811
164	0x3e1adb13	0.15122633
165	0xbdf37a49	-0.118885584
166	0x3d50ea15	0.051004488
167	0x3e093a96	0.13401255
168	0x3e6550c1	0.22394086
169	0x3e0d7e92	0.13817814
170	0xbcf9de51	-0.030501517
171	0x3de5e5f7	0.11225503
172	0xbd2829c1	-0.041055445
173	0x3dd106a2	0.10206343
174	0x3dc68c32	0.09694709
175	0x3e52ead7	0.20597397
176	0x3dfb8943	0.1228204
177	0xbd14a96c	-0.036294386
178	0xbe42faca	-0.19040981
179	0xbe85ac4a	-0.2610801
180	0xbda619ee	-0.081104144
181	0xbe465828	-0.19369566
182	0xbd88ac27	-0.066734605
183	0xbd80827b	-0.06274887
184	0x3d57f8e0	0.05272758
185	0xbdd0bf6b	-0.1019276
186	0x3c49da73	0.012320149
187	0xbe2e7513	-0.17036848
188	0x3e4fd665	0.20296629
189	0xbdbb9c27	-0.09160643
190	0x3e0f9f37	0.1402558
191	0xbd5d6f19	-0.05406103
192	0x3e91c40b	0.2846988
193	0xbf8f9aa9	-1.1219074
194	0xbce16fc8	-0.027519122
195	0x3eaa3bd2	0.33248764
196	0x3df20860	0.11818004
197	0x3ee8188b	0.45331225
198	0x3e87570d	0.26433602
199	0x3ebcc5c3	0.3686963
200	0x3e8309b9	0.25593355
201	0x3e527e98	0.20556104
202	0x3ed420e6	0.4143135
203	0x3e99087e	0.29889292
204	0x3e89452d	0.2681059
205	0xbf8b51ee	-1.0884378
206	0x3eae0bcc	0.33993375
207	0x3eb21118	0.34778666
208	0x3ea7961b	0.3273171
209	0x3e9127c2	0.28350645
210	0x3e2808fe	0.1640968
211	0x3d554748	0.052069932
212	0x3cdbf690	0.026850969
213	0xbe07f58e	-0.13277265
214	0x3eb17957	0.34662887
215	0xbf214717	-0.629991
216	0x3e5d088c	0.21585292
217	0x3e9e46d5	0.30913416
218	0xbcaaf123	-0.020866936
219	0x3e1e862e	0.15480873
220	0x3e0eeb85	0.13957031
221	0x3e8ebb6e	0.27877373
222	0x3eb1a10c	0.34693182
223	0x3ca3971c	0.019969516
224	0x3e9c9b0d	0.30587044
225	0x3e597a3b	0.21238033
226	0xbd7a9360	-0.061175704
227	0x3e754905	0.23953636
228	0xbf1e4207	-0.618195
229	0x3d7e0fb1	0.062026683
230	0x3df10c27	0.11769896
231	0x3e579820	0.21054125
232	0x3e075775	0.13216956
233	0xbf8a611e	-1.0810888
234	0x3e6f4a50	0.23368192
235	0x3e1d6267	0.15369569
236	0xbd1721e2	-0.036897548
237	0xbd12b9b0	-0.035821617
238	0x3d2cee03	0.042219173
239	0x3e4cab7f	0.19987296
240	0x3e20b783	0.15695004
241	0x3d05fa82	0.032709606
242	0x3e2b7ae9	0.16746105
243	0x3d694a3d	0.056955565
244	0x3ec6780b	0.3876346
245	0x3ef42ed8	0.4769199
246	0x3e28d3b6	0.16487011
247	0xbc12164a	-0.008916447
248	0x3e9eed27	0.31040308
249	0x3e878782	0.26470572
250	0x3c387e88	0.011260636
251	0x3e02f405	0.12788399
252	0xbd8bdc74	-0.068291575
253	0x3e57778b	0.21041696
254	0x3ec704f9	0.3887098
255	0x3c150449	0.00909526

arith.constant5 f4 [64, 128]
0	0x3e085285	0.13312729
1	0x3e521a9e	0.20517966
2	0x3e517038	0.20452964
3	0x3e298686	0.16555223
4	0x3e0c2cbe	0.13688943
5	0x3e9d53f5	0.30728117
6	0x3e1a7ba2	0.15086225
7	0xbd081943	-0.033227216
8	0x3dab7827	0.083725266
9	0x3e12672b	0.14297168
10	0x3e8451ea	0.25843745
11	0x3cdf5722	0.027263228
12	0x3d0852de	0.033282153
13	0x3d22a811	0.039711062
14	0x3d817f50	0.06323111
15	0x3e89ad7b	0.26890168
16	0x3be38cdb	0.0069442815
17	0x3e9873f5	0.29775968
18	0x3e117dc8	0.14208138
19	0x3dd5de53	0.104427956
20	0x3e386779	0.18008222
21	0x3e86006e	0.26172203
22	0x3dada36f	0.08478438
23	0x3e6806c6	0.22658834
24	0xbbb49e21	-0.0055120145
25	0x3ddd323e	0.108005986
26	0x3d14c568	0.036321074
27	0x3be17eca	0.0068815695
28	0x3e6c91c3	0.23102479
29	0x3db953f3	0.09049215
30	0x3d1311cb	0.03590564
31	0x3e2dcfb4	0.16973764
32	0x3e2e212e	0.17004845
33	0xbcbf02cb	-0.023316761
34	0x3ea34b8d	0.31893578
35	0xbbc16229	-0.005901594
36	0x3ddf957e	0.10917185
37	0x3e0bd6b9	0.13656129
38	0x3bac575b	0.005259437
39	0x3e156af0	0.14591575
40	0x3c29a8c9	0.010355183
41	0x3e6e83f3	0.23292522
42	0x3da1cb78	0.07900137
43	0xbd4247f2	-0.047431894
44	0x3e2de76a	0.16982809
45	0x3e3f4c57	0.18681465
46	0x3db892a5	0.09012345
47	0x3d5ee90b	0.054421466
48	0x3de6aafa	0.1126308
49	0x3e8ca32b	0.27468237
50	0x3e8193a5	0.25307956
51	0x3e61709e	0.22015616
52	0x3e992452	0.29910523
53	0x3e2a1522	0.16609624
54	0x3d72afe3	0.05924977
55	0x3e8d1d65	0.2756149
56	0x3e77c936	0.2419785
57	0x3dc55ca5	0.09636811
58	0x3e11b9e3	0.14231066
59	0xbc7ff240	-0.015621722
60	0x3b4111d2	0.0029460085
61	0x3d136e09	0.03599361
62	0x3e878096	0.2646529
63	0x3e965a4d	0.2936577
64	0x3d98a861	0.07453991
65	0x3d741559	0.05959067
66	0x3e238284	0.15967757
67	0x3e7a10ac	0.24420422
68	0x3e297325	0.1654783
69	0x3dfd76c8	0.12376171
70	0x3e15e525	0.14638193
71	0x3e067013	0.1312869
72	0xbc017b70	-0.007902965
73	0x3e971a6c	0.29512346
74	0xbcccfcc6	-0.025022876
75	0x3e10668d	0.1410162
76	0x3e2e22cd	0.17005463
77	0x3d9834ed	0.0743197
78	0x3e98f807	0.2987673
79	0x3e665988	0.22495091
80	0x3d4d8dcf	0.050184067
81	0x3d3aeeef	0.04563802
82	0x3e42dabc	0.19028753
83	0xbd1fe13a	-0.039033152
84	0x3d42f186	0.047593616
85	0x3e4d14f9	0.20027532
86	0x3eacbad3	0.33736286
87	0x3e4dd31e	0.20100066
88	0x3db43ea6	0.08801012
89	0x3e25c4c6	0.16188344
90	0x3c3616c0	0.011113822
91	0x3cd4d25b	0.025979212
92	0xbcb360c2	-0.021896724
93	0x3d9782c0	0.073979855
94	0x3c2c01cd	0.010498476
95	0xbd83f663	-0.06443479
96	0xbcc3ca06	-0.023900043
97	0x3ddab977	0.10679906
98	0x3df47649	0.119366236
99	0xbd3e938a	-0.046527423
100	0x3e03f4bd	0.12886329
101	0x3e24719d	0.16058965
102	0x3e58aa5f	0.21158741
103	0x3e7ecdd3	0.24883203
104	0x3e8ee4d3	0.27908954
105	0xbc59cf02	-0.013293983
106	0x3ce17bcd	0.027524853
107	0x3db1dd0b	0.08684739
108	0x3e9860a9	0.29761246
109	0x3e624aea	0.2209889
110	0x3da8f52a	0.08249886
111	0x3e25d68f	0.16195129
112	0x3c88da5f	0.01670569
113	0x3e03a4a1	0.1285577
114	0x3e6e17d8	0.23251283
115	0x3e3040db	0.1721224
116	0x3daf7d8e	0.085688695
117	0x3e1262ad	0.14295454
118	0x3d39112b	0.04518239
119	0x3d8e22e8	0.069402516
120	0x3c3ef132	0.011654185
121	0xbcbf8335	-0.023377994
122	0x3e9ab2a0	0.30214405
123	0x3d9fbe6b	0.07799991
124	0x3c525ea0	0.012839943
125	0x3e1767e4	0.14785725
126	0x3e8caf1e	0.27477354
127	0xbcfb6079	-0.03068565
128	0xbd20cff9	-0.03926084
129	0xbeb66718	-0.3562553
130	0xbe94459d	-0.2895936
131	0x3cc9ba57	0.024624987
132	0xbc3a4c47	-0.011370725
133	0xbe91bbd7	-0.28463623
134	0xbc4b841f	-0.012421637
135	0x3d1a4bdd	0.037670005
136	0xbe3bba1b	-0.18332712
137	0x3e5ba526	0.21449718
138	0xbc4c36e3	-0.012464258
139	0xbe36cbaa	-0.17851129
140	0x3e297091	0.16546847
141	0xbe110ee1	-0.14165832
142	0x3e885f46	0.26635188
143	0x3c040d9b	0.008059884
144	0xbe0e5366	-0.13899001
145	0xbd34098a	-0.04395441
146	0xbe9f8511	-0.3115621
147	0xbdd4abc4	-0.10384324
148	0xbd9ef096	-0.07760732
149	0x3e37ec59	0.17961253
150	0x3e0651a8	0.13117087
151	0x3e8e5809	0.2780154
152	0xbe6e8ab2	-0.23295096
153	0xbe1f8744	-0.15578943
154	0x3dd44ac4	0.10365823
155	0x3d428f77	0.0475001
156	0xbeb4452c	-0.35209024
157	0xbb2614df	-0.002534203
158	0xbe5c72db	-0.21528189
159	0x3dcc4e8c	0.09975919
160	0xbeb4c834	-0.35308993
161	0x3e693b03	0.22776417
162	0xbd86884e	-0.06568967
163	0x3e7339c9	0.23752512
164	0xbdc30ba2	-0.09523703
165	0xbe71a62a	-0.23598543
166	0xbe97f64a	-0.2968009
167	0x3d7ccfcd	0.06172161
168	0x3ea1abc4	0.3157636
169	0xbdfee1b0	-0.1244539
170	0xbe38d3f7	-0.18049608
171	0xbe2a9f99	-0.16662444
172	0x3e02a555	0.12758382
173	0x3e8edc72	0.2790256
174	0x3dadcbad	0.08486114
175	0x3edde16d	0.4333605
176	0xbdeac65f	-0.114636175
177	0x3c64c81e	0.013963727
178	0x3ce41d2c	0.027845941
179	0xbe09982e	-0.13436958
180	0xbe1d6e93	-0.15374212
181	0xbea719c8	-0.32636857
182	0x3cff92f9	0.031198012
183	0x3dcfd575	0.101481356
184	0xbe97196f	-0.29511592
185	0x3d7e846a	0.062138
186	0x3efb2cdc	0.49057662
187	0xbb60f6b2	-0.003432673
188	0xbcf34960	-0.029698074
189	0xbde2185f	-0.11039805
190	0xbea76285	-0.32692352
191	0xbe433950	-0.19064832
192	0x3c92086c	0.017826281
193	0x3e5977d4	0.21237117
194	0xbe089de0	-0.13341475
195	0xbea7bfcd	-0.3276352
196	0xbe00ea59	-0.12589397
197	0xbdaf8e0b	-0.085720144
198	0xbcf9d616	-0.030497592
199	0xbde783c5	-0.1130443
200	0x3e0fb2a4	0.1403299
201	0xbdea5489	-0.11441905
202	0x3bbf3da8	0.0058362074
203	0x3e8b658c	0.27225912
204	0x3d44c7a9	0.048041973
205	0x3c4ed8a0	0.01262489
206	0x3d115e6a	0.03549043
207	0xbefb27ca	-0.49053794
208	0x3c965d90	0.018355161
209	0x3e9457a0	0.28973103
210	0x3dff91f6	0.12479012
211	0xbdee61ed	-0.116397716
212	0x3e7853fe	0.2425079
213	0x3e5b03a7	0.21388112
214	0xbdadc73b	-0.08485266
215	0x3b692aa0	0.0035578385
216	0xbd573469	-0.052540217
217	0xbd2412f7	-0.04005715
218	0x3de0ca20	0.10976052
219	0xbe2ff866	-0.171846
220	0x3c59e79f	0.013299852
221	0x3e287fe1	0.16455032
222	0xbe87984b	-0.26483378
223	0x3e7d4a81	0.24735452
224	0x3e757582	0.23970607
225	0xbdc58ca1	-0.096459635
226	0x3eb6c5ec	0.35697877
227	0x3e20d768	0.15707171
228	0x3bfd9d06	0.007739666
229	0xbe85d511	-0.2613912
230	0x3daf046a	0.08545764
231	0x3eb3633e	0.35036653
232	0xbe0ef274	-0.13959676
233	0x3ec1a536	0.37821358
234	0x3e546437	0.20741354
235	0xbde11af7	-0.10991471
236	0xbdeda95d	-0.11604569
237	0xbd899e38	-0.06719631
238	0xbdb024e0	-0.08600783
239	0xbf0a64a3	-0.5405981
240	0xbd9170c4	-0.071015865
241	0xbd2a77cc	-0.041618153
242	0xbdaacb9d	-0.083396174
243	0x3df40af4	0.11916152
244	0xbc4fc18f	-0.012680425
245	0xbdb6bb9b	-0.08922502
246	0x3e889f8d	0.26684228
247	0x3e57c9e3	0.21073107
248	0x3dcb384b	0.099228464
249	0x3ec172ce	0.37782902
250	0xbd80199a	-0.06254883
251	0x3db0ec5f	0.08638834
252	0x3c9bc0f4	0.019012906
253	0xbe8d22e5	-0.27565685
254	0xbeb7cf74	-0.35900462
255	0x3e3d4c86	0.18486223

sequential_1/dense_1/MatMul f4 [128, 10]
0	0xbe2d99c5	-0.1695319
1	0x3e4661d4	0.19373256
2	0x3c9915b2	0.018687103
3	0xbcfe8283	-0.031068092
4	0xbd905e5a	-0.07049246
5	0xbd092dfb	-0.033491116
6	0x3ddba1d1	0.107242234
7	0x3e0f5c84	0.14000136
8	0x3e92a35c	0.28640258
9	0x3ddca767	0.10774117
10	0x3e4a9cd1	0.19786383
11	0xbd2710f7	-0.040787663
12	0x3e227733	0.15865783
13	0xbd262ca2	-0.04056991
14	0x3d8e57dd	0.06950352
15	0xbd299742	-0.041404016
16	0xbd8bbc7f	-0.06823062
17	0xbce323d8	-0.027727053
18	0xbdd1b6bd	-0.10239933
19	0xbdfcce3b	-0.12344023
20	0x3dafdc15	0.08586899
21	0x3d267d13	0.040646624
22	0xbd80b7da	-0.06285067
23	0xbd02a879	-0.03189895
24	0x3d95c3b0	0.07312715
25	0xbd9ed9a7	-0.07756358
26	0x3d0a56e4	0.03377427
27	0x3d94c008	0.072631896
28	0x3d49c15f	0.04925668
29	0xbbe0b4eb	-0.0068575046
30	0xbdacc287	-0.08435541
31	0x3e26b563	0.16280131
32	0xbd277c4a	-0.040890016
33	0xbdd48360	-0.1037662
34	0x3e04813c	0.12939924
35	0x3e101ae2	0.14072755
36	0xbd1cc29a	-0.038271524
37	0x3d49c39b	0.04925881
38	0x3e17eca0	0.14836359
39	0x3df45be0	0.11931586
40	0x3d1bf666	0.03807678
41	0x3de2a159	0.11065931
42	0x3dcc7e99	0.09985084
43	0xbcc2fd6e	-0.023802485
44	0xbd8966b5	-0.06709043
45	0x3d41e28f	0.047335204
46	0x3d17271b	0.03690253
47	0x3db0bd24	0.08629826
48	0x3d2d1801	0.04225922
49	0x3db8323e	0.08993958
50	0x3dfc31a1	0.123141535
51	0x3dad1b65	0.08452491
52	0x3cfe071a	0.031009246
53	0xbda935ea	-0.082622364
54	0xbcd5ff7a	-0.026122797
55	0x3c0821da	0.008308852
56	0x3c3898fd	0.011266944
57	0x3cd4a46f	0.025957314
58	0x3d16c751	0.036811177
59	0xbdc4c639	-0.096081205
60	0x3e8670a3	0.2625781
61	0xbc43a66a	-0.011941532
62	0x3d8688a6	0.06569032
63	0x3e249933	0.16074066
64	0x3e395610	0.18099236
65	0xbcbbc700	-0.022922039
66	0x3e092385	0.13392456
67	0xbe2ab6b8	-0.16671264
68	0xbe1d51c0	-0.15363216
69	0x3caf2b44	0.021382935
70	0x3db8c11d	0.090212084
71	0xbd34a4a5	-0.04410233
72	0x3d82fb93	0.0639564
73	0xbdd6b473	-0.10483637
74	0xbd9a1b19	-0.075247
75	0x3e08167d	0.13289829
76	0x3c06aabf	0.00821942
77	0x3d7f0cfb	0.06226824
78	0x3d97d027	0.07412749
79	0x3da4cca6	0.08046846
80	0xbd79f163	-0.06102122
81	0x3e12a415	0.14320405
82	0xbcbb4be3	-0.022863334
83	0x3dd57eb9	0.10424561
84	0x3e0b01e9	0.13574947
85	0xbdb05875	-0.08610622
86	0x3d888609	0.0666619
87	0xbd9a4a01	-0.075336464
88	0x3e2bd632	0.16780928
89	0x3d039818	0.03212747
90	0x3d51d4d3	0.051228356
91	0x3d537d4b	0.05163316
92	0x3e393c66	0.18089446
93	0xbe2a35cc	-0.16622084
94	0x3e18f23e	0.14936158
95	0xbb8db278	-0.0043242536
96	0xbdbbd02a	-0.091705635
97	0x3d81d22d	0.06338916
98	0x3e2f4a28	0.17118132
99	0x3d629de9	0.055326376
100	0x3dac3d79	0.084101625
101	0xbe826e1b	-0.2547463
102	0xbbe0c600	-0.006859541
103	0x3d593d1e	0.0530368
104	0x3dd58946	0.104265735
105	0xbe2264f5	-0.15858825
106	0x3dbb0489	0.091317244
107	0x3e060648	0.13088334
108	0x3d631d22	0.055447705
109	0x3ddb0af1	0.10695446
110	0x3e27fec6	0.16405782
111	0xbe04d4c3	-0.12971787
112	0x3e491dc5	0.19640262
113	0xbd5fcd82	-0.054639347
114	0x3dafe0d1	0.08587802
115	0x3cfd2e2b	0.030905804
116	0xbd9ac6ac	-0.07557425
117	0x3ca0ed7a	0.019644488
118	0x3e1ad3e5	0.15119894
119	0x3e0af4c5	0.13569935
120	0x3e393951	0.1808827
121	0x3e099796	0.13436732
122	0xbe18bb69	-0.14915241
123	0x3e1060e5	0.14099462
124	0x3df7ba90	0.12096131
125	0xbe65b356	-0.22431692
126	0xbcbf47cd	-0.023349667
127	0x3e4d42a0	0.20044947
128	0xbe330105	-0.17480858
129	0x3e04b066	0.12957916
130	0x3a010f7c	0.0004923267
131	0xbe61e43d	-0.22059722
132	0xbb1b0856	-0.0023656092
133	0xbde4177c	-0.11137292
134	0x3e78d421	0.24299671
135	0xbe411bf4	-0.1885832
136	0x3e2c59cf	0.16831134
137	0xbd3fae3f	-0.046797033
138	0x3e2dc77a	0.16970626
139	0xbd601101	-0.054703716
140	0xbded4b2c	-0.115866035
141	0x3e04ae56	0.12957129
142	0xbd98f493	-0.07468524
143	0xbdbf79ab	-0.09349378
144	0xbe0e591d	-0.13901182
145	0xbda6af58	-0.08138913
146	0xbd43e212	-0.04782302
147	0x3e20d990	0.15707994
148	0xbc93438a	-0.017976541
149	0xbdbb6fe4	-0.09152201
150	0x3cb6105a	0.022224594
151	0x3d8837f6	0.06651299
152	0xbc71a3b9	-0.014748507
153	0x3d8b94ab	0.068154655
154	0xbdc1b096	-0.09457509
155	0x3d9e61ff	0.07733535
156	0xbce4246f	-0.027849404
157	0x3d301d76	0.042996846
158	0x3df85fc9	0.121276446
159	0xbdd94958	-0.10609692
160	0x3da60552	0.081064835
161	0x3e5de5d1	0.21669699
162	0x3deefdfe	0.11669539
163	0xbce235a1	-0.027613463
164	0xbdf5e551	-0.12006629
165	0xbdfd3edc	-0.12365505
166	0x3dc1295e	0.09431718
167	0x3e291f03	0.16515736
168	0x3dc2f82e	0.09519993
169	0xbdc15e6a	-0.09441836
170	0x3d4acd8b	0.049512427
171	0x3e673479	0.2257861
172	0xbdc7bcf5	-0.097528376
173	0x3dd3f9f2	0.10350408
174	0xbcfc062a	-0.030764658
175	0x3d2be427	0.04196563
176	0x3dcfb6e2	0.10142304
177	0x3d8eada3	0.06966712
178	0x3de08536	0.10962908
179	0x3decbee2	0.115598455
180	0x3d976cf3	0.07393827
181	0xbdcec972	-0.100970164
182	0x3bf4a4b7	0.0074659246
183	0x3d8d65d0	0.06904185
184	0x3db10604	0.086437255
185	0x3dac6178	0.08417028
186	0xbcdc7218	-0.026909873
187	0xbd7dfaf4	-0.062006906
188	0x3d8d489c	0.06898615
189	0xbd9ddcc0	-0.0770812
190	0x3de3c768	0.11122018
191	0x3de7a977	0.1131162
192	0x3dfb8903	0.12281992
193	0xbd196978	-0.0374541
194	0x3cc6e7c4	0.024280436
195	0xbde9e574	-0.11420718
196	0xbc18986e	-0.009313686
197	0x3d17f08d	0.03709464
198	0x3dc21058	0.094757736
199	0x3d06f683	0.032949936
200	0xbe522ab1	-0.20524098
201	0xbe7f2bc6	-0.24919042
202	0xbe436c53	-0.19084291
203	0x3caead5c	0.021322899
204	0x3d7cd76d	0.061728884
205	0x3d347d06	0.044064544
206	0xbad7be3e	-0.0016459895
207	0xbc8dd6d2	-0.017314348
208	0x3d827031	0.06369055
209	0xbc24eb9e	-0.010065941
210	0x3dd940dc	0.10608074
211	0x3dc911a9	0.098178215
212	0x3d264cc3	0.04060055
213	0xbc544dfb	-0.012958045
214	0xbdcc0d3d	-0.099634625
215	0xbd9201f6	-0.0712928
216	0xbd9d998f	-0.076953046
217	0xbda6ecc5	-0.08150629
218	0x3d57eb93	0.052714895
219	0x3d0b25c6	0.03397157
220	0x3e2e6a5f	0.17032765
221	0xbe64a415	-0.22328217
222	0x3e1666a6	0.14687595
223	0x3e30a9d9	0.17252292
224	0xbe35d360	-0.17756414
225	0x3e1b0df8	0.15142047
226	0xbe6cc19e	-0.23120734
227	0x3d585d78	0.052823514
228	0x3deaaa9e	0.11458324
229	0x3e2a37a0	0.16622782
230	0x3dac46d7	0.08411949
231	0x3e4f022c	0.20215672
232	0xbcc937c3	-0.024562722
233	0x3dc6cf93	0.097075604
234	0xbe23720b	-0.15961473
235	0x3c73ba02	0.014875891
236	0x3d4ac7e6	0.049507044
237	0x3d6041e3	0.054750334
238	0xbdc9fbd3	-0.09862485
239	0xbc8f43c2	-0.017488364
240	0x3b9e58f6	0.0048323823
241	0x3d79f56a	0.06102506
242	0x3dbb96a6	0.09159593
243	0xbdd11e26	-0.102108285
244	0xbdbabb34	-0.091177374
245	0x3d029281	0.031878
246	0x3d5509bc	0.052011237
247	0xbd6fb58c	-0.058522746
248	0x3e3da342	0.18519309
249	0x3d85ec4a	0.06539209
250	0x3e5fffb9	0.21874894
251	0x3d5cc911	0.05390269
252	0x3e329184	0.17438322
253	0x3e3901f2	0.18067148
254	0xbc099ed9	-0.008399689
255	0xbd908229	-0.07056076

sequential_1/dense_1/Relu;sequential_1/dense_1/BiasAdd f4 [128]
0	0x3ec340f3	0.3813549
1	0x3ee37d66	0.4443161
2	0x3f0062f4	0.5015099
3	0x3ecdb2e9	0.4017556
4	0x3eccfcdd	0.4003667
5	0x3f001de4	0.5004561
6	0x3eb709b9	0.35749605
7	0x3eecff57	0.4628856
8	0x3edbc134	0.4292084
9	0x3e8c65f1	0.27421525
10	0x3ee014e6	0.43765944
11	0x3ee5fec4	0.44920933
12	0x3eab1b71	0.33419374
13	0x3ed83815	0.42230287
14	0x3ed4ed69	0.4158738
15	0x3f04f318	0.5193343
16	0x3ef87c76	0.48532456
17	0x3ee21f70	0.4416461
18	0x3ed80cd6	0.42197293
19	0x3edfc3ed	0.43704167
20	0x3e9d43b2	0.3071571
21	0x3ef36aa7	0.47542307
22	0x3eb1dd08	0.34738946
23	0x3ec71091	0.38879827
24	0x3f034e37	0.5129122
25	0x3ed86b68	0.42269444
26	0x3ef79605	0.48356643
27	0x3eb2dcda	0.3493412
28	0x3f02c8cf	0.5108766
29	0x3ed8fa48	0.4237845
30	0x3f03da58	0.5150504
31	0x3eeb687d	0.45978156
32	0x3f091089	0.53540856
33	0x3ed9a429	0.42508057
34	0x3ee8d93c	0.45478237
35	0x3ea8e6b9	0.32988527
36	0x3ecefc3d	0.40426818
37	0x3edc3a1a	0.43013078
38	0x3eccadc6	0.3997633
39	0x3ee1c6f8	0.44097114
40	0x3eab4db7	0.3345773
41	0x3efeffc2	0.49804503
42	0x3ec78c64	0.38974297
43	0x3ee44c62	0.44589525
44	0x3eaa3de8	0.33250356
45	0x3ebf25e0	0.37333584
46	0x3ee077a6	0.43841285
47	0x3eb8fd02	0.3613053
48	0x3edee5bb	0.43534645
49	0x3ee1d2de	0.4410619
50	0x3ef3cb46	0.47616023
51	0x3eb90af1	0.3614116
52	0x3eeb0dc4	0.4590894
53	0x3f004d16	0.50117624
54	0x3ef142bc	0.47121227
55	0x3ed709c7	0.41999647
56	0x3efe8f52	0.4971872
57	0x3edf5f32	0.43627316
58	0x3eb916e7	0.36150286
59	0x3eff10da	0.49817544
60	0x3e719f2b	0.23595874
61	0x3ed6bea9	0.41942337
62	0x3ecc6665	0.3992187
63	0x3f098068	0.5371156
64	0x3ed2e6f7	0.41191837
65	0x3edf1adf	0.4357519
66	0x3ee085e1	0.43852141
67	0x3f023df8	0.50875807
68	0x3ee272c5	0.44228187
69	0x3efd5cb9	0.49484804
70	0x3ea66bb3	0.32504043
71	0x3ed02453	0.40652713
72	0x3edd465d	0.43217745
73	0x3ec1b5cc	0.37834013
74	0x3ed731bb	0.4203013
75	0x3eebfa0a	0.46089202
76	0x3ed04d91	0.40684178
77	0x3ebd9ee3	0.37035283
78	0x3eed48d7	0.46344635
79	0x3ee749f5	0.45173612
80	0x3ec7e7b6	0.3904397
81	0x3eba4e14	0.36387694
82	0x3ebf0870	0.37311125
83	0x3ebe591a	0.37177354
84	0x3eca4f01	0.395134
85	0x3ee5bf23	0.44872388
86	0x3ef88e1f	0.4854593
87	0x3eadf71e	0.33977598
88	0x3eaed4e4	0.34146798
89	0x3ed379ae	0.41303772
90	0x3eeb2674	0.45927775
91	0x3eeaf147	0.45887205
92	0x3ee20a25	0.44148365
93	0x3ef88fdc	0.48547256
94	0x3ee053fb	0.43814072
95	0x3ec32342	0.38112837
96	0x3ec68a8c	0.38777578
97	0x3ee81426	0.45327872
98	0x3e97d0d2	0.29651505
99	0x3eda9d44	0.4269811
100	0x3ebba3fa	0.36648542
101	0x3eece24b	0.46266398
102	0x3eec23f5	0.46121183
103	0x3ec97280	0.3934517
104	0x3ec552d0	0.38539743
105	0x3eba2be5	0.36361614
106	0x3ec12f47	0.37731382
107	0x3ece050f	0.40238234
108	0x3eea17ec	0.45721376
109	0x3f03c573	0.5147316
110	0x3ef50db5	0.4786202
111	0x3f07615a	0.5288292
112	0x3ee18655	0.440478
113	0x3ef5921c	0.47963035
114	0x3ec09ae9	0.37618187
115	0x3ee583df	0.44827172
116	0x3ee8dab7	0.45479366
117	0x3ed8108d	0.42200127
118	0x3edd47df	0.43218896
119	0x3ecf4cb5	0.4048821
120	0x3ea46659	0.32109335
121	0x3ea29ef1	0.31761888
122	0x3f026642	0.50937283
123	0x3ef98e25	0.4874126
124	0x3ec6bd81	0.38816455
125	0x3ef2deea	0.47435695
126	0x3efa0787	0.48833868
127	0x3ee279c0	0.44233513
